Loading data...
Building model...
Model summary...
__________________________________________________________________________________________________
Layer (type)                    Output Shape         Param #     Connected to                     
==================================================================================================
word_index (InputLayer)         (None, 103)          0                                            
__________________________________________________________________________________________________
embedding_1 (Embedding)         (None, 103, 300)     131901600   word_index[0][0]                 
__________________________________________________________________________________________________
masking_1 (Masking)             (None, 103, 300)     0           embedding_1[0][0]                
__________________________________________________________________________________________________
additional_feature (InputLayer) (None, 103, 25)      0                                            
__________________________________________________________________________________________________
concatenate_1 (Concatenate)     (None, 103, 325)     0           masking_1[0][0]                  
                                                                 additional_feature[0][0]         
__________________________________________________________________________________________________
bidirectional_1 (Bidirectional) (None, 103, 128)     199680      concatenate_1[0][0]              
__________________________________________________________________________________________________
bidirectional_2 (Bidirectional) (None, 103, 128)     98816       bidirectional_1[0][0]            
__________________________________________________________________________________________________
time_distributed_1 (TimeDistrib (None, 103, 8)       1032        bidirectional_2[0][0]            
__________________________________________________________________________________________________
activation_1 (Activation)       (None, 103, 8)       0           time_distributed_1[0][0]         
==================================================================================================
Total params: 132,201,128
Trainable params: 299,528
Non-trainable params: 131,901,600
__________________________________________________________________________________________________
None
Training model...
Train on 1664 samples, validate on 1664 samples
Epoch 1/500
…
