Loading data...
251
126
Building model...
Model summary...
__________________________________________________________________________________________________
Layer (type)                    Output Shape         Param #     Connected to                     
==================================================================================================
word_index (InputLayer)         (None, 126)          0                                            
__________________________________________________________________________________________________
embedding_1 (Embedding)         (None, 126, 300)     131901600   word_index[0][0]                 
__________________________________________________________________________________________________
masking_1 (Masking)             (None, 126, 300)     0           embedding_1[0][0]                
__________________________________________________________________________________________________
additional_feature (InputLayer) (None, 126, 20)      0                                            
__________________________________________________________________________________________________
concatenate_1 (Concatenate)     (None, 126, 320)     0           masking_1[0][0]                  
                                                                 additional_feature[0][0]         
__________________________________________________________________________________________________
bidirectional_1 (Bidirectional) (None, 126, 128)     197120      concatenate_1[0][0]              
__________________________________________________________________________________________________
bidirectional_2 (Bidirectional) (None, 126, 128)     98816       bidirectional_1[0][0]            
__________________________________________________________________________________________________
domain_mask (InputLayer)        (None, 126, 128)     0                                            
__________________________________________________________________________________________________
multiply_1 (Multiply)           (None, 126, 128)     0           bidirectional_2[0][0]            
                                                                 domain_mask[0][0]                
__________________________________________________________________________________________________
time_distributed_1 (TimeDistrib (None, 126, 7)       903         multiply_1[0][0]                 
__________________________________________________________________________________________________
activation_1 (Activation)       (None, 126, 7)       0           time_distributed_1[0][0]         
==================================================================================================
Total params: 132,198,439
Trainable params: 296,839
Non-trainable params: 131,901,600
__________________________________________________________________________________________________
None
Training model...
Train on 251 samples, validate on 384 samples
Epoch 1/500
…
              ORG: precision:  35.42%; recall:  33.85%; FB1:  34.62  367
              PER: precision:   0.00%; recall:   0.00%; FB1:   0.00  105
Testing model...
['B-ORG', 'O', 'I-ORG', 'B-PER', 'B-LOC', 'I-LOC']
(508, 126)
Running time: 
0:04:20.684526
Loading data...
1755
126
Building model...
Model summary...
__________________________________________________________________________________________________
Layer (type)                    Output Shape         Param #     Connected to                     
==================================================================================================
word_index (InputLayer)         (None, 126)          0                                            
__________________________________________________________________________________________________
embedding_2 (Embedding)         (None, 126, 300)     131901600   word_index[0][0]                 
__________________________________________________________________________________________________
masking_2 (Masking)             (None, 126, 300)     0           embedding_2[0][0]                
__________________________________________________________________________________________________
additional_feature (InputLayer) (None, 126, 23)      0                                            
__________________________________________________________________________________________________
concatenate_2 (Concatenate)     (None, 126, 323)     0           masking_2[0][0]                  
                                                                 additional_feature[0][0]         
__________________________________________________________________________________________________
bidirectional_3 (Bidirectional) (None, 126, 128)     198656      concatenate_2[0][0]              
__________________________________________________________________________________________________
bidirectional_4 (Bidirectional) (None, 126, 128)     98816       bidirectional_3[0][0]            
__________________________________________________________________________________________________
domain_mask (InputLayer)        (None, 126, 128)     0                                            
__________________________________________________________________________________________________
multiply_2 (Multiply)           (None, 126, 128)     0           bidirectional_4[0][0]            
                                                                 domain_mask[0][0]                
__________________________________________________________________________________________________
time_distributed_2 (TimeDistrib (None, 126, 8)       1032        multiply_2[0][0]                 
__________________________________________________________________________________________________
activation_2 (Activation)       (None, 126, 8)       0           time_distributed_2[0][0]         
==================================================================================================
Total params: 132,200,104
Trainable params: 298,504
Non-trainable params: 131,901,600
__________________________________________________________________________________________________
None
Training model...
Train on 1755 samples, validate on 384 samples
Epoch 1/500
…
