kinhte_thethao_mix_2
Loading data...
Building model...
Model summary...
__________________________________________________________________________________________________
Layer (type)                    Output Shape         Param #     Connected to                     
==================================================================================================
word_index (InputLayer)         (None, 136)          0                                            
__________________________________________________________________________________________________
embedding_1 (Embedding)         (None, 136, 300)     131901600   word_index[0][0]                 
__________________________________________________________________________________________________
masking_1 (Masking)             (None, 136, 300)     0           embedding_1[0][0]                
__________________________________________________________________________________________________
additional_feature (InputLayer) (None, 136, 25)      0                                            
__________________________________________________________________________________________________
concatenate_1 (Concatenate)     (None, 136, 325)     0           masking_1[0][0]                  
                                                                 additional_feature[0][0]         
__________________________________________________________________________________________________
bidirectional_1 (Bidirectional) (None, 136, 128)     199680      concatenate_1[0][0]              
__________________________________________________________________________________________________
bidirectional_2 (Bidirectional) (None, 136, 128)     98816       bidirectional_1[0][0]            
__________________________________________________________________________________________________
domain_mask (InputLayer)        (None, 136, 128)     0                                            
__________________________________________________________________________________________________
multiply_1 (Multiply)           (None, 136, 128)     0           bidirectional_2[0][0]            
                                                                 domain_mask[0][0]                
__________________________________________________________________________________________________
time_distributed_1 (TimeDistrib (None, 136, 8)       1032        multiply_1[0][0]                 
__________________________________________________________________________________________________
activation_1 (Activation)       (None, 136, 8)       0           time_distributed_1[0][0]         
==================================================================================================
Total params: 132,201,128
Trainable params: 299,528
Non-trainable params: 131,901,600
__________________________________________________________________________________________________
None
Training model...
Train on 5759 samples, validate on 559 samples
Epoch 1/500
…
