The_gioi
Loading data...
Building model...
Model summary...
__________________________________________________________________________________________________
Layer (type)                    Output Shape         Param #     Connected to                     
==================================================================================================
word_index (InputLayer)         (None, 98)           0                                            
__________________________________________________________________________________________________
embedding_1 (Embedding)         (None, 98, 300)      131901600   word_index[0][0]                 
__________________________________________________________________________________________________
masking_1 (Masking)             (None, 98, 300)      0           embedding_1[0][0]                
__________________________________________________________________________________________________
additional_feature (InputLayer) (None, 98, 22)       0                                            
__________________________________________________________________________________________________
concatenate_1 (Concatenate)     (None, 98, 322)      0           masking_1[0][0]                  
                                                                 additional_feature[0][0]         
__________________________________________________________________________________________________
bidirectional_1 (Bidirectional) (None, 98, 128)      198144      concatenate_1[0][0]              
__________________________________________________________________________________________________
bidirectional_2 (Bidirectional) (None, 98, 128)      98816       bidirectional_1[0][0]            
__________________________________________________________________________________________________
domain_mask (InputLayer)        (None, 98, 128)      0                                            
__________________________________________________________________________________________________
multiply_1 (Multiply)           (None, 98, 128)      0           bidirectional_2[0][0]            
                                                                 domain_mask[0][0]                
__________________________________________________________________________________________________
time_distributed_1 (TimeDistrib (None, 98, 8)        1032        multiply_1[0][0]                 
__________________________________________________________________________________________________
activation_1 (Activation)       (None, 98, 8)        0           time_distributed_1[0][0]         
==================================================================================================
Total params: 132,199,592
Trainable params: 297,992
Non-trainable params: 131,901,600
__________________________________________________________________________________________________
None
Training model...
Train on 1138 samples, validate on 285 samples
Epoch 1/500
…
